…
 (None, 128, 128, 12  256        ['conv2d_1[0][0]']               \n anceNormalization)             8)                                                                \n                                                                                                  \n re_lu_1 (ReLU)                 (None, 128, 128, 12  0           ['instance_normalization_1[0][0]'\n                                8)                               ]                                \n                                                                                                  \n conv2d_2 (Conv2D)              (None, 64, 64, 256)  294912      ['re_lu_1[0][0]']                \n                                                                                                  \n instance_normalization_2 (Inst  (None, 64, 64, 256)  512        ['conv2d_2[0][0]']               \n anceNormalization)                                                                               \n                                                                                                  \n re_lu_2 (ReLU)                 (None, 64, 64, 256)  0           ['instance_normalization_2[0][0]'\n                                                                 ]                                \n                                                                                                  \n tf.compat.v1.pad_1 (TFOpLambda  (None, 66, 66, 256)  0          ['re_lu_2[0][0]']                \n )                                                                                                \n                                                                                                  \n conv2d_3 (Conv2D)              (None, 64, 64, 256)  589824      ['tf.compat.v1.pad_1[0][0]']     \n                                                                                                  \n instance_normalization_3 (Inst  (None, 64, 64, 256)  512        ['conv2d_3[0][0]']               \n anceNormalization)                                                                               \n                                                                                                  \n re_lu_3 (ReLU)                 (None, 64, 64, 256)  0           ['instance_normalization_3[0][0]'\n                                                                 ]                                \n                                                                                                  \n tf.compat.v1.pad_2 (TFOpLambda  (None, 66, 66, 256)  0          ['re_lu_3[0][0]']                \n )                                                                                                \n                                                                                                  \n conv2d_4 (Conv2D)              (None, 64, 64, 256)  589824      ['tf.compat.v1.pad_2[0][0]']     \n                                                                                                  \n instance_normalization_4 (Inst  (None, 64, 64, 256)  512        ['conv2d_4[0][0]']               \n anceNormalization)                                                                               \n                                                                                                  \n add (Add)                      (None, 64, 64, 256)  0           ['instance_normalization_4[0][0]'\n                                                                 , 're_lu_2[0][0]']               \n                                                                                                  \n tf.compat.v1.pad_3 (TFOpLambda  (None, 66, 66, 256)  0          ['add[0][0]']                    \n )                                                                                                \n                                                                                                  \n conv2d_5 (Conv2D)              (None, 64, 64, 256)  589824      ['tf.compat.v1.pad_3[0][0]']     \n                                                                                                  \n instance_normalization_5 (Inst  (None, 64, 64, 256)  512        ['conv2d_5[0][0]']               \n anceNormalization)                                                                               \n                                                                                                  \n re_lu_4 (ReLU)                 (None, 64, 64, 256)  0           ['instance_normalization_5[0][0]'\n                                                                 ]                                \n                                                                                                  \n tf.compat.v1.pad_4 (TFOpLambda  (None, 66, 66, 256)  0          ['re_lu_4[0][0]']                \n )                                                                                                \n                                                                                                  \n conv2d_6 (Conv2D)              (None, 64, 64, 256)  589824      ['tf.compat.v1.pad_4[0][0]']     \n                                                                                                  \n instance_normalization_6 (Inst  (None, 64, 64, 256)  512        ['conv2d_6[0][0]']               \n anceNormalization)                                                                               \n                                                                                                  \n add_1 (Add)                    (None, 64, 64, 256)  0           ['instance_normalization_6[0][0]'\n                                                                 , 'add[0][0]']                   \n                                                                                                  \n tf.compat.v1.pad_5 (TFOpLambda  (None, 66, 66, 256)  0          ['add_1[0][0]']                  \n )                                                                                                \n                                                                                                  \n conv2d_7 (Conv2D)              (None, 64, 64, 256)  589824      ['tf.compat.v1.pad_5[0][0]']     \n                                                                                                  \n instance_normalization_7 (Inst  (None, 64, 64, 256)  512        ['conv2d_7[0][0]']               \n anceNormalization)                                                                               \n                                                                                                  \n re_lu_5 (ReLU)                 (None, 64, 64, 256)  0           ['instance_normalization_7[0][0]'\n                                                                 ]                                \n                                                                                                  \n tf.compat.v1.pad_6 (TFOpLambda  (None, 66, 66, 256)  0          ['re_lu_5[0][0]']                \n )                                                                                                \n                                                                                                  \n conv2d_8 (Conv2D)              (None, 64, 64, 256)  589824      ['tf.compat.v1.pad_6[0][0]']     \n                                                                                                  \n instance_normalization_8 (Inst  (None, 64, 64, 256)  512        ['conv2d_8[0][0]']               \n anceNormalization)                                                                               \n                                                                                                  \n add_2 (Add)                    (None, 64, 64, 256)  0           ['instance_normalization_8[0][0]'\n                                                                 , 'add_1[0][0]']                 \n                                                                                                  \n tf.compat.v1.pad_7 (TFOpLambda  (None, 66, 66, 256)  0          ['add_2[0][0]']                  \n )                                                                                                \n                                                                                                  \n conv2d_9 (Conv2D)              (None, 64, 64, 256)  589824      ['tf.compat.v1.pad_7[0][0]']     \n                                                                                                  \n instance_normalization_9 (Inst  (None, 64, 64, 256)  512        ['conv2d_9[0][0]']               \n anceNormalization)                                                                               \n                                                                                                  \n re_lu_6 (ReLU)                 (None, 64, 64, 256)  0           ['instance_normalization_9[0][0]'\n                                                                 ]                                \n                                                                                                  \n tf.compat.v1.pad_8 (TFOpLambda  (None, 66, 66, 256)  0          ['re_lu_6[0][0]']                \n )                                                                                                \n                                                                                                  \n conv2d_10 (Conv2D)             (None, 64, 64, 256)  589824      ['tf.compat.v1.pad_8[0][0]']     \n                                                                                                  \n instance_normalization_10 (Ins  (None, 64, 64, 256)  512        ['conv2d_10[0][0]']              \n tanceNormalization)                                                                              \n                                                                                                  \n add_3 (Add)                    (None, 64, 64, 256)  0           ['instance_normalization_10[0][0]\n                                                                 ',                               \n                                                                  'add_2[0][0]']                  \n                                                                                                  \n tf.compat.v1.pad_9 (TFOpLambda  (None, 66, 66, 256)  0          ['add_3[0][0]']                  \n )                                                                                                \n                                                                                                  \n conv2d_11 (Conv2D)             (None, 64, 64, 256)  589824      ['tf.compat.v1.pad_9[0][0]']     \n                                                                                                  \n instance_normalization_11 (Ins  (None, 64, 64, 256)  512        ['conv2d_11[0][0]']              \n tanceNormalization)                                                                              \n                                                                                                  \n re_lu_7 (ReLU)                 (None, 64, 64, 256)  0           ['instance_normalization_11[0][0]\n                                                                 ']                               \n                                                                                                  \n tf.compat.v1.pad_10 (TFOpLambd  (None, 66, 66, 256)  0          ['re_lu_7[0][0]']                \n a)                                                                                               \n                                                                                                  \n conv2d_12 (Conv2D)             (None, 64, 64, 256)  589824      ['tf.compat.v1.pad_10[0][0]']    \n                                                                                                  \n instance_normalization_12 (Ins  (None, 64, 64, 256)  512        ['conv2d_12[0][0]']              \n tanceNormalization)                                                                              \n                                                                                                  \n add_4 (Add)                    (None, 64, 64, 256)  0           ['instance_normalization_12[0][0]\n                                                                 ',                               \n                                                                  'add_3[0][0]']                  \n                                                                                                  \n tf.compat.v1.pad_11 (TFOpLambd  (None, 66, 66, 256)  0          ['add_4[0][0]']                  \n a)                                                                                               \n                                                                                                  \n conv2d_13 (Conv2D)             (None, 64, 64, 256)  589824      ['tf.compat.v1.pad_11[0][0]']    \n                                                                                                  \n instance_normalization_13 (Ins  (None, 64, 64, 256)  512        ['conv2d_13[0][0]']              \n tanceNormalization)                                                                              \n                                                                                                  \n re_lu_8 (ReLU)                 (None, 64, 64, 256)  0           ['instance_normalization_13[0][0]\n                                                                 ']                               \n                                                                                                  \n tf.compat.v1.pad_12 (TFOpLambd  (None, 66, 66, 256)  0          ['re_lu_8[0][0]']                \n a)                                                                                               \n                                                                                                  \n conv2d_14 (Conv2D)             (None, 64, 64, 256)  589824      ['tf.compat.v1.pad_12[0][0]']    \n                                                                                                  \n instance_normalization_14 (Ins  (None, 64, 64, 256)  512        ['conv2d_14[0][0]']              \n tanceNormalization)                                                                              \n                                                                                                  \n add_5 (Add)                    (None, 64, 64, 256)  0           ['instance_normalization_14[0][0]\n                                                                 ',                               \n                                                                  'add_4[0][0]']                  \n                                                                                                  \n tf.compat.v1.pad_13 (TFOpLambd  (None, 66, 66, 256)  0          ['add_5[0][0]']                  \n a)                                                                                               \n                                                                                                  \n conv2d_15 (Conv2D)             (None, 64, 64, 256)  589824      ['tf.compat.v1.pad_13[0][0]']    \n                                                                                                  \n instance_normalization_15 (Ins  (None, 64, 64, 256)  512        ['conv2d_15[0][0]']              \n tanceNormalization)                                                                              \n                                                                                                  \n re_lu_9 (ReLU)                 (None, 64, 64, 256)  0           ['instance_normalization_15[0][0]\n                                                                 ']                               \n                                                                                                  \n tf.compat.v1.pad_14 (TFOpLambd  (None, 66, 66, 256)  0          ['re_lu_9[0][0]']                \n a)                                                                                               \n                                                                                                  \n conv2d_16 (Conv2D)             (None, 64, 64, 256)  589824      ['tf.compat.v1.pad_14[0][0]']    \n                                                                                                  \n instance_normalization_16 (Ins  (None, 64, 64, 256)  512        ['conv2d_16[0][0]']              \n tanceNormalization)                                                                              \n                                                                                                  \n add_6 (Add)                    (None, 64, 64, 256)  0           ['instance_normalization_16[0][0]\n                                                                 ',                               \n                                                                  'add_5[0][0]']                  \n                                                                                                  \n tf.compat.v1.pad_15 (TFOpLambd  (None, 66, 66, 256)  0          ['add_6[0][0]']                  \n a)                                                                                               \n                                                                                                  \n conv2d_17 (Conv2D)             (None, 64, 64, 256)  589824      ['tf.compat.v1.pad_15[0][0]']    \n                                                                                                  \n instance_normalization_17 (Ins  (None, 64, 64, 256)  512        ['conv2d_17[0][0]']              \n tanceNormalization)                                                                              \n                                                                                                  \n re_lu_10 (ReLU)                (None, 64, 64, 256)  0           ['instance_normalization_17[0][0]\n                                                                 ']                               \n                                                                                                  \n tf.compat.v1.pad_16 (TFOpLambd  (None, 66, 66, 256)  0          ['re_lu_10[0][0]']               \n a)                                                                                               \n                                                                                                  \n conv2d_18 (Conv2D)             (None, 64, 64, 256)  589824      ['tf.compat.v1.pad_16[0][0]']    \n                                                                                                  \n instance_normalization_18 (Ins  (None, 64, 64, 256)  512        ['conv2d_18[0][0]']              \n tanceNormalization)                                                                              \n                                                                                                  \n add_7 (Add)                    (None, 64, 64, 256)  0           ['instance_normalization_18[0][0]\n                                                                 ',                               \n                                                                  'add_6[0][0]']                  \n                                                                                                  \n tf.compat.v1.pad_17 (TFOpLambd  (None, 66, 66, 256)  0          ['add_7[0][0]']                  \n a)                                                                                               \n                                                                                                  \n conv2d_19 (Conv2D)             (None, 64, 64, 256)  589824      ['tf.compat.v1.pad_17[0][0]']    \n                                                                                                  \n instance_normalization_19 (Ins  (None, 64, 64, 256)  512        ['conv2d_19[0][0]']              \n tanceNormalization)                                                                              \n                                                                                                  \n re_lu_11 (ReLU)                (None, 64, 64, 256)  0           ['instance_normalization_19[0][0]\n                                                                 ']                               \n                                                                                                  \n tf.compat.v1.pad_18 (TFOpLambd  (None, 66, 66, 256)  0          ['re_lu_11[0][0]']               \n a)                                                                                               \n                                                                                                  \n conv2d_20 (Conv2D)             (None, 64, 64, 256)  589824      ['tf.compat.v1.pad_18[0][0]']    \n                                                                                                  \n instance_normalization_20 (Ins  (None, 64, 64, 256)  512        ['conv2d_20[0][0]']              \n tanceNormalization)                                                                              \n                                                                                                  \n add_8 (Add)                    (None, 64, 64, 256)  0           ['instance_normalization_20[0][0]\n                                                                 ',                               \n                                                                  'add_7[0][0]']                  \n                                                                                                  \n conv2d_transpose (Conv2DTransp  (None, 128, 128, 12  
…
1:05.249014Z","shell.execute_reply.started":"2025-09-16T02:11:05.068888Z","shell.execute_reply":"2025-09-16T02:11:05.245707Z"}},"outputs":[{"name":"stdout","text":"Discriminator created successfully!\nModel: \"PatchGAN_Discriminator\"\n_________________________________________________________________\n Layer (type)                Output Shape              Param #   \n=================================================================\n input_2 (InputLayer)        [(None, 256, 256, 3)]     0         \n                                                                 \n conv2d_22 (Conv2D)          (None, 128, 128, 64)      3136      \n                                                                 \n leaky_re_lu (LeakyReLU)     (None, 128, 128, 64)      0         \n                                                                 \n conv2d_23 (Conv2D)          (None, 64, 64, 128)       131072    \n                                                                 \n instance_normalization_23 (  (None, 64, 64, 128)      256       \n InstanceNormalization)                                          \n                                                                 \n leaky_re_lu_1 (LeakyReLU)   (None, 64, 64, 128)       0         \n                                                                 \n conv2d_24 (Conv2D)          (None, 32, 32, 256)       524288    \n                                                                 \n instance_normalization_24 (  (None, 32, 32, 256)      512       \n InstanceNormalization)                                          \n                                                                 \n leaky_re_lu_2 (LeakyReLU)   (None, 32, 32, 256)       0         \n                                                                 \n conv2d_25 (Conv2D)          (None, 32, 32, 512)       2097152   \n                                                                 \n instance_normalization_25 (  (None, 32, 32, 512)      1024      \n InstanceNormalization)                                          \n                                                                 \n leaky_re_lu_3 (LeakyReLU)   (None, 32, 32, 512)       0         \n                                                                 \n conv2d_26 (Conv2D)          (None, 32, 32, 1)         8193      \n                                                                 \n=================================================================\nTotal params: 2,765,633\nTrainable params: 2,765,633\nNon-trainable params: 0\n_________________________________________________________________\n","output_type":"stream"}],"execution_count":14},{"id":"7437a14c","cell_type":"markdown","source":"## 实现对比学习损失函数
…
